model/model.pth (torch, 17216 bytes, 4 tensors)

linear1.weight f4 [256, 11]
-0.61995167 0.14804852 -0.2921251 -0.20792314 -0.047838252 0.5733102 -0.10060619 -0.8454222
-0.7845628 -0.49345022 0.16038324 -0.027144028 -0.6204583 -0.3349411 0.20987473 0.6369849
-0.15552719 1.0399152 0.2779779 -0.40510175 -0.4183067 -1.0246462 0.18908569 0.1497836
0.10500897 -0.18711093 -0.07019009 -0.08467764 -0.32028618 -0.0356617 -0.01806653 -0.121022224
-0.11553738 0.39733505 -0.8242459 0.5223577 -0.13177334 0.33561918 0.23867795 0.1240838
0.17264748 -0.9319338 -0.44463885 -0.028526211 0.50704384 -0.66124636 0.19457182 -0.3862554
0.260037 0.2582995 0.24349913 0.24911891 0.24867973 0.16065483 -0.21312687 -0.39370665
0.32105237 0.3238874 -0.42584056 -0.2203033 -0.5244193 -0.30561426 -0.05683877 -0.03168212
-0.17202751 -0.010362782 -0.27867267 -0.24862719 0.1732368 0.6241317 -0.43940556 -0.37395665
0.7140255 -0.9973403 -0.83255905 0.5044254 -0.5569524 0.19996336 -0.45867977 0.1757449
-0.34422424 -0.31596822 0.20697838 0.0969554 0.12889558 0.0035012225 -0.12430138 -0.18767393
0.68879706 0.51118976 -0.9396139 0.010032042 0.01852461 -0.20508416 -0.011654353 0.22889884
0.06897059 0.30490568 0.061471667 0.1441807 0.23504585 0.11333824 -0.14447834 -0.25669357
-0.5153235 -0.027244413 0.06566696 0.22756663 0.14473934 -0.07381025 -0.18089092 -0.5173821
-0.5320489 0.7865972 0.6851405 -0.12467954 -0.47350416 0.25215796 0.09782556 -0.88095343
-0.77323496 -0.09635882 0.42579016 -0.14288282 -0.7265809 -0.17312072 -0.079629764 0.0063003795
-0.25564492 -0.94495845 -0.025721911 -0.28636906 -0.031669077 -0.0072107445 -0.60608643 -0.49494562
0.12170085 0.53803235 -0.3011114 -0.92633766 -0.87959075 0.31890163 -0.6627575 0.18754567
-0.2803017 0.12652749 -0.604272 -0.012920257 -0.14782548 -0.19299248 0.12906122 -0.2653378
-0.061379734 -0.4845141 -0.022577243 -0.57742167 0.064941086 0.38452607 -0.15164839 -0.22946444
-0.06698968 -0.68041635 -0.34212786 0.15717195 -0.42417896 -0.10935452 -0.41626284 -0.4782178
0.5014318 -0.5798686 0.2113039 0.45070192 -0.31229344 -1.5001534 -0.22463176 -0.10477709
0.17359844 0.033000045 -0.27333486 0.03820499 -0.006963551 -0.26733693 -0.20358916 -0.19961527
-0.17953354 -0.1356312 -0.044324853 0.36208937 0.017776843 -0.13756746 0.54376006 0.6216082
0.58966035 -0.3162121 -0.064595975 -0.116595745 -0.014226609 -0.0016424723 0.36813217 0.027170956
-0.110035285 -0.38752076 -0.5878931 -0.4147701 -0.0006432537 0.2294159 -0.017038852 -0.68407035
-0.28547832 -0.5945534 -0.00031789023 -0.052677605 -0.15872318 0.5962466 -0.37661666 -0.3591834
0.54246366 -0.09233639 -0.9863295 -0.917045 -0.13556208 -0.0363746 0.03412664 -0.04344964
0.18264176 0.19282848 -0.023317069 -0.23709899 0.07652134 -0.08553988 -0.21804416 0.15221703
0.09384888 -0.54694945 -0.15703897 0.3783882 -0.3192442 -0.3243279 -0.58833057 -0.62581974
0.16267477 -0.46111208 0.059368037 0.28869507 0.12647013 -0.13493888 -0.31200087 -0.07076159
-0.4411646 0.010030132 0.10527815 0.024812352 0.06470032 -0.32966524 0.046759494 0.14455342
00000000: 27b5 1ebf 089a 173e 6c91 95be cee9 54be
00000010: 0bf2 43bd 75c4 123f 9e0a cebd 976d 58bf
00000020: 1cd9 48bf 82a5 fcbe 813b 243e 275d debc
00000030: 5bd6 1ebf 667d abbe 67e9 563e 7111 233f
00000040: 8542 1fbe f11b 853f 1f53 8e3e 7f69 cfbe
00000050: 4c2c d6be 9b27 83bf ae9f 413e df60 193e
00000060: f10e d73d 029a 3fbe d2bf 8fbd 786b adbd
00000070: 8dfc a3be 0112 12bd 4200 94bc 80da f7bd
00000080: dd9e ecbd 806f cb3e c801 53bf 3cb9 053f
00000090: 97ef 06be 47d6 ab3e fe67 743e a61f fe3d
000000a0: 80ca 303e 3793 6ebf b4a7 e3be cdaf e9bc
000000b0: a0cd 013f 7147 29bf d63d 473e 45c3 c5be
000000c0: 9223 853e d53f 843e d657 793e 0719 7f3e
000000d0: e6a5 7e3e b382 243e ee3d 5abe eb93 c9be
000000e0: fa60 a43e 92d4 a53e c607 dabe 3097 61be
000000f0: 5840 06bf 7979 9cbe c5cf 68bd 1cc5 01bd
00000100: fb27 30be a8c8 29bc 2fae 8ebe 2098 7ebe
00000110: fd64 313e 18c7 1f3f c4f9 e0be 3f77 bfbe
00000120: 60ca 363f b251 7fbf 9722 55bf 0622 013f
00000130: 6f94 0ebf 32c3 4c3e 13d8 eabe 79f6 333e
00000140: 293e b0be 96c6 a1be 24f2 533e 8e90 c63d
00000150: 34fd 033e c474 653b b991 febd 982d 40be
00000160: 0155 303f 55dd 023f 898a 70bf 6f5d 243c
00000170: ecc0 973c 9501 52be e6f1 3ebc 7564 6a3e
00000180: 7440 8d3d 991c 9c3e b7c9 7b3d 1ba4 133e
00000190: dcaf 703e e11d e83d 21f2 13be 576d 83be
000001a0: 3eec 03bf ad2f dfbc 667c 863d 3a07 693e
000001b0: 8d36 143e d429 97bd 783b 39be 2773 04bf
000001c0: 5b34 08bf 6f5e 493f 5e65 2f3f fd57 ffbd
000001d0: 236f f2be d91a 813e c458 c83d 2a86 61bf
000001e0: baf2 45bf c657 c5bd 2b01 da3e e04f 12be
000001f0: 3501 3abf 8f46 31be ee14 a3bd 6a73 ce3b
00000200: e4e3 82be cce8 71bf c2b6 d2bc f79e 92be
00000210: 6fb7 01bd 1c48 ecbb 7b28 1bbf 8369 fdbe
00000220: 4c3e f93d 7dbc 093f 462b 9abe 7724 6dbf
00000230: dc2c 61bf 1347 a33e 7aaa 29bf f90b 403e
00000240: b483 8fbe 6c90 013e 92b1 1abf 7caf 53bc
00000250: 905f 17be d29f 45be a028 043e 5bda 87be
00000260: 5169 7bbd 3b12 f8be e9f3 b8bc e8d1 13bf
00000270: d5ff 843d 9ae0 c43e b749 1bbe baf8 6abe
00000280: e331 89bd c42f 2ebf 622b afbe aff1 203e
00000290: fc2d d9be 43f5 dfbd 6720 d5be f7d8 f4be
000002a0: d65d 003f 4572 14bf 0d60 583e 67c2 e63e
000002b0: ede4 9fbe 0705 c0bf de05 66be 5f95 d6bd
000002c0: cac3 313e 0e2b 073d 8cf2 8bbe d67c 1c3d
000002d0: 802e e4bb 63e0 88be ad79 50be f267 4cbe
000002e0: a4d7 37be e8e2 0abe fa8d 35bd c763 b93e
000002f0: bea0 913c 7cde 0cbe dc33 0b3f b721 1f3f
00000300: fbf3 163f 8de6 a1be e54a 84bd c0c9 eebd
00000310: b916 69bc 3a48 d7ba d27b bc3e a095 de3c
00000320: 2e5a e1bd 1f69 c6be 2a80 16bf bf5c d4be
00000330: 06a0 28ba 00ec 6a3e 1095 8bbc 3c1f 2fbf
00000340: 372a 92be a734 18bf 81aa a6b9 79c4 57bd
00000350: 5488 22be 9ea3 183f e6d3 c0be e3e6 b7be
00000360: e6de 0a3f dc1a bdbd 1780 7cbf 76c3 6abf
00000370: c9d0 0abe 88fd 14bd 60c8 0b3d 40f8 31bd
00000380: 7106 3b3e d474 453e 7003 bfbc 14ca 72be
00000390: 38b7 9c3d 882f afbd f846 5fbe c8de 1b3e
000003a0: d733 c03d e104 0cbf d3ce 20be 19bc c13e
000003b0: fa73 a3be 4e0e a6be d59c 16bf b935 20bf
000003c0: 3794 263e e216 ecbe e62b 733d d7cf 933e
000003d0: 6381 013e 6b2d 0abe 94be 9fbe 74eb 90bd
000003e0: 54e0 e1be 6c55 243c 129c d73d 4643 cb3c
000003f0: 9a81 843d e2c9 a8be e286 3f3d d005 143e

linear1.bias f4 [256]
-0.16112521 -0.39641434 -0.46184534 -0.584244 -0.95972097 -0.44683427 -0.22785173 -0.74322146
-0.43112734 -0.89203185 0.8594229 -0.35324606 -0.095733 -0.49446523 -0.1827925 0.9697939
-0.29435858 -0.79903334 -0.5342436 -0.31714696 -0.32225245 -0.30631512 -0.61809105 0.011991159
0.07240164 -0.53971815 -0.06440391 -0.7487589 -0.82775867 -0.55319726 -0.19556431 -0.36930168
0.14123085 -0.08595517 0.37722138 0.033446454 -0.7583847 0.39331985 0.61168236 -0.5211966
0.6613609 0.73797625 -0.21647787 -0.18207158 -0.807494 -0.2390469 -0.22574632 -0.4219556
-0.78342026 0.47015736 -0.15902282 1.0593332 -0.1647538 0.2386085 -0.07090232 0.06517751
0.5252219 -0.20096578 -0.18829076 -0.42546913 -0.34982932 -0.077429645 -0.12736607 -0.549781
-0.23520932 -0.021711001 -0.21874472 -0.50695354 -0.6670402 -0.043240827 -0.52366734 -0.34391606
-0.16234408 -0.28692722 -0.49270085 -0.062130976 -0.694239 -0.50693387 -0.36392814 -0.7150533
-0.29219452 -0.550601 -0.3143857 -0.29641342 -0.24068674 0.21615092 -0.24360166 -0.3738965
-0.18830375 -0.6296037 -0.6944224 -0.17507343 0.13527909 -0.058242608 -0.3137085 0.73792124
4.8663827e-05 -0.27869692 -0.39043063 0.027181627 -0.691524 -0.25121456 -0.28686967 -0.08759572
-0.9356296 0.3951222 -0.38693345 -0.61209637 0.4092328 -0.3524357 0.26731363 -0.3259458
-0.27473325 -0.2513894 -0.22826488 -0.08889443 -0.084050335 -0.36051512 0.6582918 -0.11885842
-0.16377944 0.28940028 -0.21911205 -0.23261657 -0.23217183 0.37595654 -0.16817811 -0.48422864
-0.66352254 -0.54410607 -0.34154302 -0.37684828 0.48480278 -0.15830754 -0.0011265952 -0.63578165
-0.36601743 -0.2835182 -0.51383924 0.101133056 -0.34173608 -0.39063638 -0.23631388 -0.020158187
-0.22695418 -0.24085489 -0.0043034395 -0.32058376 -0.5499742 -0.24845171 -0.26032993 -0.36485156
-0.2614656 -0.47451878 -0.3594345 -0.37241024 -0.33124176 0.03274069 -0.86030406 -0.1587949
-0.49254152 -0.8794366 -0.20191813 -0.0059170946 -0.60057145 -0.45385593 -0.26189613 -0.80223835
-0.10809091 1.3349899 -0.3494121 0.16183165 -0.23707014 -0.44671187 0.12466497 0.1120999
-0.5727563 -0.6214928 0.16600408 0.24647327 -0.45081297 -0.7450606 -0.9071665 -0.64855725
0.5565689 -0.087472275 -0.61710227 -0.11602399 -0.37425622 -0.16813983 -0.77213466 -0.5126585
-0.018873313 -0.36264452 -0.28723648 -0.8351375 0.11636873 -0.3328333 -0.26103604 -0.486412
-0.10816457 -0.27396864 -0.36328012 0.47672382 -0.9521997 -0.1218053 -0.9238652 -0.4474162
-0.17521793 0.55486935 0.5875607 -0.2320692 -0.31782943 -0.10131994 -0.32879564 -0.34715018
-0.41432595 -0.27523562 -0.031388972 0.4931214 -0.7291711 -0.05648621 -0.07789674 -0.27964258
-0.028458152 -0.0597254 -0.6252839 -0.5908525 -0.19184494 -0.22476982 -0.2673013 -0.39095366
0.91528535 -0.23398218 0.1326057 -0.04857976 -0.25878572 -0.31613067 -0.110718 -0.28028616
-0.14240207 0.65863186 -0.5552083 -0.2773948 -0.40695283 -0.9421448 -0.34572452 0.05459137
-0.41374195 -0.27248734 -0.80288225 -0.9327089 0.004180763 0.38966638 -0.2550688 0.26428324
00000000: 02fe 24be d2f6 cabe fe76 ecbe 0491 15bf
00000010: 46b0 75bf 76c7 e4be f751 69be c343 3ebf
00000020: b9bc dcbe 335c 64bf 2403 5c3f abdc b4be
00000030: aa0f c4bd 8c2a fdbe f52d 3bbe 6a44 783f
00000040: 2bb6 96be 738d 4cbf 30c4 08bf 1661 a2be
00000050: 46fe a4be 56d5 9cbe 373b 1ebf 9176 443c
00000060: 5047 943d f82a 0abf 32e6 83bd aaae 3fbf
00000070: fee7 53bf 569e 0dbf 0342 48be 1c15 bdbe
00000080: d29e 103e 4409 b0bd 2923 c13e 26ff 083d
00000090: 8025 42bf 3861 c93e 3797 1c3f 246d 05bf
000000a0: f34e 293f 03ec 3c3f 60ac 5dbe f970 3abe
000000b0: edb7 4ebf b6c8 74be 0b2a 67be 900a d8be
000000c0: 3b8e 48bf 77b8 f03e e1d6 22be 3b98 873f
000000d0: 38b5 28be c955 743e 3c35 91bd c97b 853d
000000e0: f174 063f f9c9 4dbe 4bcf 40be 17d7 d9be
000000f0: d41c b3be 6f93 9ebd 406c 02be 73be 0cbf
00000100: b6da 70be 45db b1bc 9efe 5fbe b5c7 01bf
00000110: 26c3 2abf 4b1d 31bd 100f 06bf c415 b0be
00000120: 873d 26be 20e8 92be 4943 fcbe 0d7d 7ebd
00000130: a6b9 31bf 6bc6 01bf ca54 babe bc0d 37bf
00000140: 859a 95be 30f4 0cbf 2af7 a0be 80c3 97be
00000150: 9676 76be ab56 5d3e b772 79be 5d6f bfbe
00000160: b3d2 40be b52d 21bf abc5 31bf 7346 33be
00000170: 9a86 0a3e cd8f 6ebd 679e a0be 68e8 3c3f
00000180: 631c 4c38 5db1 8ebe 86e6 c7be 01ac de3c
00000190: b807 31bf 329f 80be 95e0 92be 6365 b3bd
000001a0: 6c85 6fbf 754d ca3e 241c c6be 59b2 1cbf
000001b0: f686 d13e 7472 b4be 55dd 883e 5ee2 a6be
000001c0: d6a9 8cbe 1db6 80be 45be 69be 480e b6bd
000001d0: 9522 acbd 7095 b8be d085 283f 0b6c f3bd
000001e0: ccb5 27be 462c 943e e95e 60be 0a33 6ebe
000001f0: 74be 6dbe 607d c03e e236 2cbe d1ec f7be
00000200: 9ddc 29bf 894a 0bbf bade aebe 42f2 c0be
00000210: 1238 f83e 5f1b 22be 43aa 93ba 96c2 22bf
00000220: a366 bbbe 4c29 91be f88a 03bf d91e cf3d
00000230: 08f8 aebe 7e01 c8be 44fc 71be c822 a5bc
00000240: ad66 68be aaa2 76be de03 8dbb 8e23 a4be
00000250: 1ccb 0cbf 206a 7ebe f749 85be d3cd babe
00000260: d2de 85be 20f4 f2be cc07 b8be 8eac bebe
00000270: 8598 a9be 1a1b 063d e33c 5cbf 219b 22be
00000280: 672e fcbe c222 61bf a0c3 4ebe 30e4 c1bb
00000290: 0dbf 19bf ce5f e8be 4017 86be 7e5f 4dbf
000002a0: c45e ddbd f3e0 aa3f 25e6 b2be 32b7 253e
000002b0: 84c2 72be 6bb7 e4be 5950 ff3d a294 e53d
000002c0: 28a0 12bf 271a 1fbf f9fc 293e 7d63 7c3e
000002d0: f5d0 e6be 4bbc 3ebf 103c 68bf d907 26bf
000002e0: 4d7b 0e3f aa24 b3bd 6afa 1dbf fc9d edbd
000002f0: 839e bfbe d92c 2cbe 9eaa 45bf 963d 03bf
00000300: 359c 9abc 8bac b9be a910 93be 92cb 55bf
00000310: bb52 ee3d 2069 aabe 84a6 85be fe0a f9be
00000320: 6385 ddbd 9e45 8cbe daff b9be 2515 f43e
00000330: 5cc3 73bf 0f75 f9bd 6e82 6cbf bc13 e5be
00000340: 546c 33be eb0b 0e3f 616a 163f 8ca3 6dbe
00000350: 8aba a2be d480 cfbd e757 a8be abbd b1be
00000360: 8822 d4be afeb 8cbe b991 00bd 687a fc3e
00000370: f5aa 3abf 165e 67bd 5388 9fbd 502d 8fbe
00000380: 1221 e9bc 9fa2 74bd 9b12 20bf 1c42 17bf
00000390: 0073 44be 0f2a 66be b7db 88be 142b c8be
000003a0: 2450 6a3f 0699 6fbe cac9 073e 92fb 46bd
000003b0: 907f 84be e1db a1be 1ec0 e2bd ab81 8fbe
000003c0: d9d1 11be 199c 283f 2222 0ebf b106 8ebe
000003d0: 1f5c d0be 6730 71bf ce02 b1be 339b 5f3d
000003e0: fcd5 d3be 7683 8bbe b189 4dbf 03c6 6ebf
000003f0: c8fe 883b 5a82 c73e 6198 82be 2250 873e

linear2.weight f4 [3, 256]
-0.053941663 -0.16610347 -0.060618646 -0.010651074 2.870506 0.012016856 -0.18162577 1.8268842
-0.07062457 0.003360322 0.39515612 0.0005070984 0.40236846 0.12213915 4.472216 0.47308007
0.020498633 2.3796325 2.229348 -0.12078611 -0.027928777 4.4583497 0.0021418068 0.152485
0.3266835 -0.11497159 -0.018965214 0.18573272 -0.16774446 0.88573784 -0.34092522 -0.29789776
0.47069475 -0.3909875 0.084128775 -0.31853193 2.832675 0.10289985 0.19499221 -0.0076456806
0.17414072 0.41896474 0.01868736 -0.22048116 0.014245083 0.025565522 0.039862517 0.019584067
-0.039461765 0.29071376 -0.07730727 0.34295943 -0.029662065 -0.035158664 0.56602615 0.0045363335
0.63221073 0.050867543 -0.062238723 -0.15161638 0.007743272 -0.23770119 -0.0023158106 0.3599078
0.0025704757 -0.056068238 0.035318308 0.057090115 0.3257537 -0.110075735 -0.816386 0.41481665
-0.19786666 -0.01119521 -0.23901887 -0.00019233221 0.030632574 0.038210686 -0.11525815 0.05605235
0.010479206 -0.43249273 0.02457366 0.0059537888 -0.026863838 0.69896775 -0.10558207 -0.19356407
1.094116 0.8485018 -0.079674214 0.24178898 0.5616142 0.053770423 0.04582994 0.46588224
0.013282356 -0.025946373 0.030538028 -0.04978148 0.8990093 -0.22454557 0.008722807 0.041246053
0.0031948835 0.34935746 0.018693458 -0.123294346 0.19539401 -0.006635653 0.1708164 0.00076757115
-0.030489879 -0.025676567 -0.020648882 -0.2189981 0.020807689 -0.14984618 0.5782444 -1.0047258
-0.09152273 0.5457788 4.2725134 -0.023118606 3.7891955 0.32972857 0.022485059 0.049472988
1.6839974 0.21319732 -0.12375718 -0.08193541 0.19402276 -0.011657031 0.029075656 1.6049981
-1.0281942 -0.033365104 -0.014274766 -0.047765777 -0.016927319 4.3472877 0.15432204 0.019417517
-0.040224634 -0.006797273 -0.3785235 -0.27242583 1.8248329 -0.35178518 -0.6291783 0.28476447
-0.6592125 -0.4923315 0.49418578 0.0075788153 -0.049092103 -0.02584944 1.0064096 0.1921092
0.25049236 3.6483092 -0.11069534 0.55417377 0.9683995 2.64006 -0.433079 0.3120027
-0.06936409 0.1790413 0.0686179 0.726753 0.00046858419 -0.061787114 -0.049263403 0.6443473
0.26371905 2.428931 -0.21722084 0.030654749 -0.52126575 0.70083797 4.1251755 -0.1659882
0.33752772 0.02487214 -0.004648804 -0.30494747 -0.056219216 -0.118188545 0.6959924 -0.20767786
-0.18738651 -0.23210132 0.008514509 -0.03856222 -0.059880245 0.5581169 -0.014187198 -0.1326328
0.056570023 -0.02947299 3.3517225 0.3395496 0.6041525 -0.016220395 2.2035182 -0.068523556
-0.19297503 0.2894355 0.34610948 -0.0063094776 -0.006534786 -0.17594807 -0.16447882 -0.1414076
-0.009888708 -0.0185933 -0.00438812 0.09503236 1.569871 -0.2733416 -0.28579202 -0.01086921
0.68468887 -0.25789562 -0.10210107 0.014543822 0.2742756 0.19793344 0.0016725796 0.69792044
0.29700398 -0.033400457 0.2465881 2.462861 -0.00048634715 0.79392576 -0.18719798 -0.004575331
0.6598896 0.40426767 -0.0010777587 -0.031162584 0.6376564 2.4268894 -0.015151413 0.017837238
0.0060915328 -0.16861218 0.056499243 3.1993918 0.35866943 0.7932973 -0.0349131 0.03924769
00000000: eff1 5cbd 0717 2abe 424b 78bd d881 2ebc
00000010: 5fb6 3740 59e2 443c 1bfc 39be 57d7 e93f
00000020: 9da3 90bd d938 5c3b e751 ca3e ccee 043a
00000030: 3d03 ce3e 1724 fa3d 651c 8f40 8d37 f23e
00000040: c0ec a73c e64b 1840 a3ad 0e40 b55e f7bd
00000050: e4ca e4bc cdaa 8e40 8e5d 0c3b 0725 1c3e
00000060: 0f43 a73e 3a76 ebbd f05c 9bbc b830 3e3e
00000070: 34c5 2bbe b7bf 623f c08d aebe 0e86 98be
00000080: e7fe f03e 832f c8be b54b ac3d 9e16 a3be
00000090: 8c4a 3540 28bd d23d 0aac 473e 9e88 fabb
000000a0: f251 323e 8c82 d63e 3c16 993c d0c5 61be
000000b0: 3564 693c c96e d13c e146 233d c46e a03c
000000c0: a9a2 21bd 6fd8 943e 4653 9ebd 6198 af3e
000000d0: dcfd f2bc 8802 10bd 17e7 103f 86a5 943b
000000e0: 90d8 213f 7c5a 503d 08ee 7ebd 5341 1bbe
000000f0: 46bb fd3b f167 73be dbc4 17bb d645 b83e
00000100: 6d75 283b cfa7 65bd eea9 103d 53d7 693d
00000110: 30c9 a63e 636f e1bd acfe 50bf d962 d43e
00000120: 8f9d 4abe 1d6c 37bc 5dc1 74be c9ac 49b9
00000130: 2af1 fa3c cf82 1c3d 770c ecbd 2697 653d
00000140: fab0 2b3c b06f ddbe b34e c93c 0018 c33b
00000150: 8d11 dcbc 8def 323f 6a3b d8bd a935 46be
00000160: fe0b 8c3f 6a37 593f 3c2c a3bd 8897 773e
00000170: f3c5 0f3f 603e 5c3d 2db8 3b3d 1e88 ee3e
00000180: 3d9e 593c 7d8d d4bc e32a fa3c aae7 4bbd
00000190: 7925 663f 46ef 65be 1bea 0e3c 9ff1 283d
000001a0: 4061 513b fbde b23e 0623 993c bf81 fcbd
000001b0: 5e15 483e e46f d9bb 7fea 2e3e d436 493a
000001c0: e9c5 f9bc aa57 d2bc d827 a9bc 0a41 60be
000001d0: e374 aa3c 4771 19be d307 143f db9a 80bf
000001e0: 4570 bbbd 29b8 0b3f 6eb8 8840 3b63 bdbc
000001f0: 2e82 7240 2fd2 a83e 9632 b83c 30a4 4a3d
00000200: 3a8d d73f 6650 5a3e 6874 fdbd c1cd a7bd
00000210: e7ad 463e 22fd 3ebc 1230 ee3c 9470 cd3f
00000220: de9b 83bf d9a9 08bd b5e0 69bc 0ca6 43bd
00000230: 29ab 8abc fb1c 8b40 9906 1e3e 7c11 9f3c
00000240: 96c2 24bd a9bb debb d5cd c1be 667b 8bbe
00000250: 2094 e93f 301d b4be d411 21bf a6cc 913e
00000260: 27c2 28bf e012 fcbe eb05 fd3e b657 f83b
00000270: cd14 49bd 34c2 d3bc 08d2 803f 46b8 443e
00000280: 8940 803e e67d 6940 3db4 e2bd 55de 0d3f
00000290: 08e9 773f bef6 2840 88bc ddbe d1be 9f3e
000002a0: c30e 8ebd 9a56 373e 8b87 8c3d 7c0c 3a3f
000002b0: 4eac f539 7c14 7dbd 6cc8 49bd f2f3 243f
000002c0: 2f06 873e 9b73 1b40 246f 5ebe ab1f fb3c
000002d0: ac71 05bf 1e6a 333f 7001 8440 d0f8 29be
000002e0: 6fd0 ac3e a8c0 cb3c ff54 98bb 1322 9cbe
000002f0: 1f46 66bd d60c f2bd 8f2c 323f 81a9 54be
00000300: 40e2 3fbe f8ab 6dbe 7080 0b3c 6bf3 1dbd
00000310: fd44 75bd c0e0 0e3f 6c71 68bc e5d0 07be
00000320: f8b5 673d 5771 f1bc 9f82 5640 72d9 ad3e
00000330: bda9 1a3f a2e0 84bc 7106 0d40 1456 8cbd
00000340: 3f9b 45be e430 943e 4335 b13e bcbf cebb
00000350: c221 d6bb bb2b 34be 236d 28be 27cd 10be
00000360: 3f04 22bc fa50 98bc 38ca 8fbb 53a0 c23d
00000370: 88f1 c83f 6ef3 8bbe 5553 92be c514 32bc
00000380: c547 2f3f e50a 84be 5e1a d1bd 3649 6e3c
00000390: da6d 8c3e 10af 4a3e 753a db3a eaaa 323f
000003a0: e810 983e ebce 08bd 9781 7c3e 849f 1d40
000003b0: 69fc feb9 b83e 4b3f d4b0 3fbe a9ec 95bb
000003c0: 86ee 283f 2cfc ce3e 9543 8dba ad48 ffbc
000003d0: 733d 233f 2852 1b40 a23d 78bc 661f 923c
000003e0: 7b9b c73b aca8 2cbe c06b 673d d6c2 4c40
000003f0: 85a3 b73e 8815 4b3f 0a01 0fbd 30c2 203d

linear2.bias f4 [3]
0.55414337 -0.070510484 0.033534672
00000000: 57dc 0d3f cd67 90bd a75b 093d
